Model: "parNet"
__________________________________________________________________________________________________
Layer (type)                    Output Shape         Param #     Connected to                     
==================================================================================================
input_50 (InputLayer)           [(None, 512, 3)]     0                                            
__________________________________________________________________________________________________
conv1d_144 (Conv1D)             (None, 512, 32)      512         input_50[0][0]                   
__________________________________________________________________________________________________
batch_normalization_288 (BatchN (None, 512, 32)      128         conv1d_144[0][0]                 
__________________________________________________________________________________________________
activation_288 (Activation)     (None, 512, 32)      0           batch_normalization_288[0][0]    
__________________________________________________________________________________________________
conv1d_145 (Conv1D)             (None, 512, 64)      10304       activation_288[0][0]             
__________________________________________________________________________________________________
batch_normalization_289 (BatchN (None, 512, 64)      256         conv1d_145[0][0]                 
__________________________________________________________________________________________________
activation_289 (Activation)     (None, 512, 64)      0           batch_normalization_289[0][0]    
__________________________________________________________________________________________________
conv1d_146 (Conv1D)             (None, 512, 256)     82176       activation_289[0][0]             
__________________________________________________________________________________________________
batch_normalization_290 (BatchN (None, 512, 256)     1024        conv1d_146[0][0]                 
__________________________________________________________________________________________________
activation_290 (Activation)     (None, 512, 256)     0           batch_normalization_290[0][0]    
__________________________________________________________________________________________________
global_max_pooling1d_48 (Global (None, 256)          0           activation_290[0][0]             
__________________________________________________________________________________________________
dense_192 (Dense)               (None, 32)           8224        global_max_pooling1d_48[0][0]    
__________________________________________________________________________________________________
batch_normalization_291 (BatchN (None, 32)           128         dense_192[0][0]                  
__________________________________________________________________________________________________
activation_291 (Activation)     (None, 32)           0           batch_normalization_291[0][0]    
__________________________________________________________________________________________________
dense_193 (Dense)               (None, 9)            297         activation_291[0][0]             
__________________________________________________________________________________________________
reshape_24 (Reshape)            (None, 3, 3)         0           dense_193[0][0]                  
__________________________________________________________________________________________________
dot_24 (Dot)                    (None, 512, 3)       0           input_50[0][0]                   
                                                                 reshape_24[0][0]                 
__________________________________________________________________________________________________
conv1d_147 (Conv1D)             (None, 512, 64)      256         dot_24[0][0]                     
__________________________________________________________________________________________________
batch_normalization_292 (BatchN (None, 512, 64)      256         conv1d_147[0][0]                 
__________________________________________________________________________________________________
activation_292 (Activation)     (None, 512, 64)      0           batch_normalization_292[0][0]    
__________________________________________________________________________________________________
conv1d_148 (Conv1D)             (None, 512, 128)     8320        activation_292[0][0]             
__________________________________________________________________________________________________
batch_normalization_293 (BatchN (None, 512, 128)     512         conv1d_148[0][0]                 
__________________________________________________________________________________________________
activation_293 (Activation)     (None, 512, 128)     0           batch_normalization_293[0][0]    
__________________________________________________________________________________________________
conv1d_149 (Conv1D)             (None, 512, 256)     33024       activation_293[0][0]             
__________________________________________________________________________________________________
batch_normalization_294 (BatchN (None, 512, 256)     1024        conv1d_149[0][0]                 
__________________________________________________________________________________________________
activation_294 (Activation)     (None, 512, 256)     0           batch_normalization_294[0][0]    
__________________________________________________________________________________________________
global_max_pooling1d_49 (Global (None, 256)          0           activation_294[0][0]             
__________________________________________________________________________________________________
dense_194 (Dense)               (None, 2048)         526336      global_max_pooling1d_49[0][0]    
__________________________________________________________________________________________________
batch_normalization_295 (BatchN (None, 2048)         8192        dense_194[0][0]                  
__________________________________________________________________________________________________
activation_295 (Activation)     (None, 2048)         0           batch_normalization_295[0][0]    
__________________________________________________________________________________________________
dense_195 (Dense)               (None, 1024)         2098176     activation_295[0][0]             
__________________________________________________________________________________________________
batch_normalization_296 (BatchN (None, 1024)         4096        dense_195[0][0]                  
__________________________________________________________________________________________________
activation_296 (Activation)     (None, 1024)         0           batch_normalization_296[0][0]    
__________________________________________________________________________________________________
dense_196 (Dense)               (None, 512)          524800      activation_296[0][0]             
__________________________________________________________________________________________________
batch_normalization_297 (BatchN (None, 512)          2048        dense_196[0][0]                  
__________________________________________________________________________________________________
activation_297 (Activation)     (None, 512)          0           batch_normalization_297[0][0]    
__________________________________________________________________________________________________
dense_197 (Dense)               (None, 128)          65664       activation_297[0][0]             
__________________________________________________________________________________________________
batch_normalization_298 (BatchN (None, 128)          512         dense_197[0][0]                  
__________________________________________________________________________________________________
activation_298 (Activation)     (None, 128)          0           batch_normalization_298[0][0]    
__________________________________________________________________________________________________
dense_198 (Dense)               (None, 16)           2064        activation_298[0][0]             
__________________________________________________________________________________________________
batch_normalization_299 (BatchN (None, 16)           64          dense_198[0][0]                  
__________________________________________________________________________________________________
activation_299 (Activation)     (None, 16)           0           batch_normalization_299[0][0]    
__________________________________________________________________________________________________
dense_199 (Dense)               (None, 4)            68          activation_299[0][0]             
==================================================================================================
Total params: 3,378,461
Trainable params: 3,369,341
Non-trainable params: 9,120
__________________________________________________________________________________________________