Model: "parNet"
__________________________________________________________________________________________________
Layer (type)                    Output Shape         Param #     Connected to                     
==================================================================================================
input_50 (InputLayer)           [(None, 1024, 3)]    0                                            
__________________________________________________________________________________________________
conv1d_144 (Conv1D)             (None, 1024, 16)     160         input_50[0][0]                   
__________________________________________________________________________________________________
batch_normalization_240 (BatchN (None, 1024, 16)     64          conv1d_144[0][0]                 
__________________________________________________________________________________________________
activation_240 (Activation)     (None, 1024, 16)     0           batch_normalization_240[0][0]    
__________________________________________________________________________________________________
conv1d_145 (Conv1D)             (None, 1024, 64)     1088        activation_240[0][0]             
__________________________________________________________________________________________________
batch_normalization_241 (BatchN (None, 1024, 64)     256         conv1d_145[0][0]                 
__________________________________________________________________________________________________
activation_241 (Activation)     (None, 1024, 64)     0           batch_normalization_241[0][0]    
__________________________________________________________________________________________________
conv1d_146 (Conv1D)             (None, 1024, 256)    16640       activation_241[0][0]             
__________________________________________________________________________________________________
batch_normalization_242 (BatchN (None, 1024, 256)    1024        conv1d_146[0][0]                 
__________________________________________________________________________________________________
activation_242 (Activation)     (None, 1024, 256)    0           batch_normalization_242[0][0]    
__________________________________________________________________________________________________
global_max_pooling1d_48 (Global (None, 256)          0           activation_242[0][0]             
__________________________________________________________________________________________________
dense_144 (Dense)               (None, 16)           4112        global_max_pooling1d_48[0][0]    
__________________________________________________________________________________________________
batch_normalization_243 (BatchN (None, 16)           64          dense_144[0][0]                  
__________________________________________________________________________________________________
activation_243 (Activation)     (None, 16)           0           batch_normalization_243[0][0]    
__________________________________________________________________________________________________
dense_145 (Dense)               (None, 9)            153         activation_243[0][0]             
__________________________________________________________________________________________________
reshape_24 (Reshape)            (None, 3, 3)         0           dense_145[0][0]                  
__________________________________________________________________________________________________
dot_24 (Dot)                    (None, 1024, 3)      0           input_50[0][0]                   
                                                                 reshape_24[0][0]                 
__________________________________________________________________________________________________
conv1d_147 (Conv1D)             (None, 1024, 64)     256         dot_24[0][0]                     
__________________________________________________________________________________________________
batch_normalization_244 (BatchN (None, 1024, 64)     256         conv1d_147[0][0]                 
__________________________________________________________________________________________________
activation_244 (Activation)     (None, 1024, 64)     0           batch_normalization_244[0][0]    
__________________________________________________________________________________________________
conv1d_148 (Conv1D)             (None, 1024, 128)    8320        activation_244[0][0]             
__________________________________________________________________________________________________
batch_normalization_245 (BatchN (None, 1024, 128)    512         conv1d_148[0][0]                 
__________________________________________________________________________________________________
activation_245 (Activation)     (None, 1024, 128)    0           batch_normalization_245[0][0]    
__________________________________________________________________________________________________
conv1d_149 (Conv1D)             (None, 1024, 256)    33024       activation_245[0][0]             
__________________________________________________________________________________________________
batch_normalization_246 (BatchN (None, 1024, 256)    1024        conv1d_149[0][0]                 
__________________________________________________________________________________________________
activation_246 (Activation)     (None, 1024, 256)    0           batch_normalization_246[0][0]    
__________________________________________________________________________________________________
global_max_pooling1d_49 (Global (None, 256)          0           activation_246[0][0]             
__________________________________________________________________________________________________
dense_146 (Dense)               (None, 2048)         526336      global_max_pooling1d_49[0][0]    
__________________________________________________________________________________________________
batch_normalization_247 (BatchN (None, 2048)         8192        dense_146[0][0]                  
__________________________________________________________________________________________________
activation_247 (Activation)     (None, 2048)         0           batch_normalization_247[0][0]    
__________________________________________________________________________________________________
dense_147 (Dense)               (None, 512)          1049088     activation_247[0][0]             
__________________________________________________________________________________________________
batch_normalization_248 (BatchN (None, 512)          2048        dense_147[0][0]                  
__________________________________________________________________________________________________
activation_248 (Activation)     (None, 512)          0           batch_normalization_248[0][0]    
__________________________________________________________________________________________________
dense_148 (Dense)               (None, 32)           16416       activation_248[0][0]             
__________________________________________________________________________________________________
batch_normalization_249 (BatchN (None, 32)           128         dense_148[0][0]                  
__________________________________________________________________________________________________
activation_249 (Activation)     (None, 32)           0           batch_normalization_249[0][0]    
__________________________________________________________________________________________________
dense_149 (Dense)               (None, 4)            132         activation_249[0][0]             
==================================================================================================
Total params: 1,669,293
Trainable params: 1,662,509
Non-trainable params: 6,784
__________________________________________________________________________________________________